models/distance_model/filtering_model/filtering_model.pt (torch, 206564 bytes, 8 tensors)

weight f4 [128, 384]
000000 86 7b da bc 47 9d 2d bd ae 92 05 bd 93 d8 f1 3b
       -0.026670229 -0.04238632 -0.032610588 0.007380554
000010 12 f6 be bc 0d 49 68 bd 26 75 b4 3b 3c aa ae 3c
       -0.023310695 -0.05671029 0.0055071292 0.021321408
000020 a8 1b 8b bb db c8 28 bc 22 95 0b 3d d2 3f b7 3c
       -0.0042452402 -0.010301794 0.03407777 0.0223693
000030 7c 43 ff 3a 0f 57 45 bd e4 29 bb 3c c0 cc f3 ba
       0.0019475068 -0.04817873 0.022847123 -0.0018600449
000040 ad a1 92 bc f4 b9 b2 3c 40 25 30 bc 0c f6 23 3d
       -0.017899359 0.021817185 -0.010751069 0.04002957
000050 aa 69 d8 3b ae d8 5f bd 99 0d 76 bc 97 e2 c7 bc
       0.006604393 -0.05465 -0.01501789 -0.024400039
000060 11 4c 30 3d b0 bf 44 ba 0b 1f 17 bd 0b 4f 97 bc
       0.043041293 -0.00075053703 -0.03689484 -0.018470308
000070 1e 46 a4 bc 1e dd fa 3c e8 60 47 3c b3 18 b5 bc
       -0.020052966 0.030623015 0.0121691 -0.022106504
000080 73 13 4c bd c5 40 7e 3c 19 9e 8d bc f5 01 8a 3d
       -0.049823236 0.015518372 -0.0172873 0.067386545
000090 dc bb 5f 3c 62 16 24 bc cd 8e b6 bc a0 ea 66 3c
       0.013655629 -0.010015102 -0.02228489 0.014094025
0000a0 be 72 50 3a 58 f0 c5 bc b7 e8 a0 bb 40 b5 a0 3c
       0.0007951668 -0.024162456 -0.0049105543 0.019617677
0000b0 5e a0 15 3d c3 ef cb 3c e3 8e 93 bc 6a 71 c8 3c
       0.03652989 0.0248946 -0.01801247 0.024468143
0000c0 66 a7 84 bb 18 2c 7c bd 13 cc 8c bb 98 23 08 bc
       -0.0040482758 -0.06156549 -0.0042967885 -0.008309267
0000d0 21 ca 0a 3d e4 3d 1e 3d 0f 57 5d bd 28 37 e9 3c
       0.03388417 0.038633242 -0.054038104 0.028468683
0000e0 23 89 1d 3d 79 47 1a bc f0 64 07 3c b8 41 60 3d
       0.038460862 -0.0094164545 0.0082638115 0.054750174
0000f0 ec 59 21 3d 0e 16 05 bc 40 7c 32 bd a8 0c 99 3c
       0.039392397 -0.008122934 -0.043575525 0.018682793
000100 bf 11 65 bc 82 4d 0c bd 46 ba c6 3c 60 dc 86 bd
       -0.013981282 -0.034253605 0.024258744 -0.06585002
000110 6d 6b 26 bc 6c 8a 27 bd c9 50 db bc 19 14 a9 3c
       -0.010157448 -0.040903494 -0.02677192 0.020639466
000120 42 d2 56 bd b1 82 b6 bb a5 0c c9 3b cd e0 26 3d
       -0.05244661 -0.005569779 0.0061355405 0.04074173
000130 4b d6 01 bc 76 7a c7 bc 9c 3e 1b bd 2f c2 1b bd
       -0.007924627 -0.024350386 -0.037901506 -0.038026985
000140 ae 4f 22 3d ab c5 03 3d b1 62 44 bb 85 d7 3f ba
       0.03962677 0.032170933 -0.0029966051 -0.00073181867
000150 c5 0f 5f 3d ff d2 fb 3b e6 c6 76 bd 2e cc 54 bc
       0.0544584 0.007685065 -0.060248278 -0.012988133
000160 72 e3 b4 3d e3 2b 04 3d 8d 47 61 3d 3b ad 44 3c
       0.08832444 0.032268416 0.054999877 0.012004192
000170 69 1e ea 3a 7b d6 5a 3d 6f f2 70 3c 86 ba c5 bc
       0.0017861846 0.0534272 0.014706238 -0.024136793
000180 4b 38 78 3d 01 ff 63 3d 0e f3 5a bd 8a c8 2c bd
       0.06060056 0.055663113 -0.05345445 -0.042183436
000190 f1 3a 2d bd 2c b5 ca 3a 8c cf 52 bc c7 a1 bb 3a
       -0.04229254 0.001546537 -0.012866866 0.0014315181
0001a0 d8 ef d2 bc a9 2f da 3c 39 e8 b7 bc fd db 57 bc
       -0.025749132 0.026634054 -0.0224496 -0.013175008
0001b0 28 53 c0 bc 8b 84 d0 bc 5f 55 88 3d 78 67 53 ba
       -0.023477152 -0.025453826 0.06656908 -0.0008064429
0001c0 bc 60 5d bc cb a4 2e 3c c3 73 63 3d a9 df de bb
       -0.013511833 0.010659407 0.05553032 -0.0068015647
0001d0 39 15 25 3d 9b dc 1c 3d 49 11 97 bc f0 53 26 bd
       0.040303443 0.038296323 -0.01844086 -0.040607393
0001e0 a9 34 60 3c 0b 29 f9 bc 21 d4 91 bc ea a4 c1 3c
       0.01368443 -0.030415079 -0.017801346 0.023638207
0001f0 dd 7b ca ba 2c a4 a2 bc 29 4e ea bc 35 27 e8 3b
       -0.0015448291 -0.019853674 -0.028601723 0.007084752
000200 e1 ba 6b bb 0e 58 95 bc 1f db 2c 3d 92 34 1f bc
       -0.0035969543 -0.018230464 0.042201158 -0.009717124
000210 3b ed 0b 3d 82 29 24 3d 32 3e 51 3d 53 16 4b bc
       0.034161787 0.040078647 0.051084705 -0.012395459
000220 04 15 c0 ba 29 7f 12 3c ca ad 24 bd 1f 9f 11 3d
       -0.0014654701 0.00894145 -0.0402048 0.03555214
000230 34 17 02 bd 81 7d 6c bd d5 a8 4b bd a8 c7 60 3d
       -0.03176041 -0.057736877 -0.049721558 0.054877907
000240 8e 25 17 bc 09 4e 9c 3c c0 29 02 3d fe ae 28 bd
       -0.009225262 0.019080179 0.031778097 -0.04118251
000250 72 8f db bc 75 81 00 3d 79 c8 4d 3c 9d fa 70 bc
       -0.026801798 0.03137346 0.012560003 -0.014708188
000260 35 28 10 bc 09 89 17 3d a1 d0 9c bc c1 9a 5f 3d
       -0.008798649 0.03699592 -0.01914245 0.054590944
000270 44 0a 98 bb cc f6 37 bc ab d0 76 bc 88 c8 53 bd
       -0.0046398956 -0.011228275 -0.015064399 -0.051704913
000280 42 07 27 3b a7 7c 60 3d 4f c7 5b 3c 37 f8 4a 3d
       0.0025486504 0.054806378 0.013414218 0.049553122
000290 b2 c8 28 bc 06 54 35 3d d0 cd 7f bc 7a 01 38 3c
       -0.010301756 0.044269584 -0.015613034 0.011230821
0002a0 ee 31 1c 3c 92 83 8d bc 5b 76 3e bd df eb f8 bb
       0.009533389 -0.017274652 -0.04649959 -0.0075964774
0002b0 0d f6 c5 bb 55 96 f9 bb 7b cc 96 3c 1c 0b e7 bc
       -0.0060412944 -0.007616798 0.01840805 -0.02820354
0002c0 c2 84 76 3d 98 d6 35 3c 2d fd 15 3d 42 66 aa bb
       0.0601852 0.011098526 0.0366184 -0.0052001784
0002d0 57 4d f0 bc 57 2a 36 bc 61 c0 f2 bc d6 c8 9b 3d
       -0.029333754 -0.011118493 -0.029632749 0.07606666
0002e0 81 1b 0c 3d 02 28 16 bd 7e da fa bc bb 82 7c bd
       0.034205917 -0.03665925 -0.030621763 -0.06164811
0002f0 cd 67 51 bd 35 31 2a bb 93 9a cb 3c 27 15 e8 3c
       -0.051124383 -0.002596927 0.02485398 0.028330399
000300 ca aa 85 3d d8 ea 6d 3d 32 0a 48 3d dc d9 87 3d
       0.06526716 0.058085293 0.048837848 0.0663335
000310 b2 35 29 bc 90 ad 7b 3c a2 a7 ea bc 0c 39 4a bd
       -0.010327743 0.015361205 -0.028644387 -0.04937081
000320 60 a9 48 bd 96 1b fd 3c 6d ed 9c bc 65 07 46 bd
       -0.048989654 0.030896943 -0.019156182 -0.048346896
000330 c7 42 0c bd ec 10 7c 3c 01 d7 5a bd 2a 74 75 3d
       -0.03424337 0.015384894 -0.0534277 0.059925236
000340 a2 d2 f4 3c 1a a2 18 3d 76 da 32 3d 16 30 e2 3b
       0.029885594 0.037263967 0.04366537 0.006902705
000350 1f ce 6b 3d 61 3b 26 3d d0 ec 04 3b 11 7f 44 bd
       0.05756962 0.040583972 0.0020282753 -0.047972742
000360 50 be 58 bd cd 48 16 3b 76 93 d3 bc 86 28 6c 3d
       -0.05291587 0.0022931576 -0.02582715 0.057655834
000370 2f 86 ec 3c b6 fc 89 3b 6d 65 1b bd b0 c0 e2 bc
       0.028872577 0.0042110337 -0.037938524 -0.027679771
000380 4e 03 1b bc c7 82 29 3d 35 87 d5 bc 44 77 05 3d
       -0.009461237 0.041384485 -0.026065448 0.032584444
000390 00 23 27 3d 0c 25 c7 3c 26 92 97 bd 90 72 9e bc
       0.040804863 0.024309658 -0.074009225 -0.019341737
0003a0 79 1e a0 bc 50 c3 46 bd 3b a3 11 3c 64 01 9b bb
       -0.01954578 -0.04852611 0.008889015 -0.0047303904
0003b0 63 33 06 bd f3 8f 3b 3c 1a ec 31 bd bb 8a 00 3d
       -0.03276385 0.011447894 -0.043438055 0.031382304
0003c0 06 f1 fc bb e1 d2 83 3c 89 13 5f bc e2 74 53 3d
       -0.007719162 0.016091766 -0.013615497 0.05162514
0003d0 6e c1 5a 3d 34 b4 9b bc df d7 5e bc 6b 18 bb bc
       0.053407125 -0.019006826 -0.013601272 -0.022838792
0003e0 cd ac 8d bd 6f 2f 42 3c d6 a5 50 bd cd 94 e5 bc
       -0.06917725 0.011852129 -0.050939403 -0.028025055
0003f0 02 02 a0 b9 0d 65 bb bc 9a b6 56 3b 84 12 c9 bc
       -0.00030519074 -0.022875333 0.0032762648 -0.024544962

bias f4 [128]
000000 07 ac 7a 3c 54 b3 46 bd d8 d6 3d bd 06 b6 83 3c
       0.015299804 -0.048510864 -0.04634747 0.016078006
000010 57 ad c2 3c b7 55 99 bc 5b af 13 bd 4c a2 b9 bb
       0.023764296 -0.01871763 -0.036055904 -0.0056650992
000020 6a b2 5d bc d4 45 af bc 49 5d 90 3a a1 50 97 bc
       -0.013531307 -0.021395601 0.0011014129 -0.018471064
000030 5b ed 34 3d 9e 71 3f bd 24 06 49 bd 81 24 21 3d
       0.044171672 -0.046739213 -0.04907812 0.039341453
000040 a7 00 5e bd 43 0b 87 bd ce 19 d4 bc 0a a6 d2 bc
       -0.05419984 -0.06593945 -0.02589121 -0.02571394
000050 cd d1 1a bd ec 00 32 bc 6e 0f 3f bd 34 5c 59 3b
       -0.037797738 -0.010864478 -0.046645574 0.003316653
000060 b5 a8 9b 3c ca 36 32 ba 53 0c f5 bb 9b 28 33 bc
       0.019001344 -0.00067983253 -0.007478276 -0.010934974
000070 71 78 08 bd ff d7 2d 3d 49 82 8b bc 28 fb 04 bd
       -0.033317987 0.042442318 -0.017029898 -0.032466084
000080 d9 bd 73 3b 48 00 fd bc 3e 01 4a bd a3 3b 8d bc
       0.0037192015 -0.030883923 -0.04931759 -0.017240351
000090 c5 ed e9 3c 1c a4 e3 3c 71 c1 4e 3d cc f3 40 bc
       0.02855576 0.027788214 0.05047745 -0.011776876
0000a0 60 03 b6 bc 82 cf 4e bd 72 11 08 bd f0 6b ba bc
       -0.022218406 -0.050490864 -0.033219762 -0.022756547
0000b0 f6 48 0c bd fe 94 64 bd a3 85 d4 bc 4e fc 32 bd
       -0.03424927 -0.055806153 -0.02594263 -0.043697648
0000c0 b1 e6 84 bc cd c4 61 bd 76 af 3c 3c 1f 4d 87 3c
       -0.016223283 -0.055119324 0.0115164425 0.016516266
0000d0 59 e8 74 3c ad 31 0b 3d c8 39 05 bd 8c b8 e7 3a
       0.014947974 0.03398292 -0.032525808 0.0017678901
0000e0 ce 4b 02 bc 26 0a 28 3c 27 0e 61 bc 94 ea 85 bb
       -0.007952644 0.010256326 -0.013736284 -0.004086802
0000f0 48 bb 6d bd 44 57 d7 3c 20 10 2e bc 69 df e4 bc
       -0.058039933 0.026286729 -0.010623962 -0.027938562
000100 ae 29 0d 3c bd 16 31 bd b4 9b 83 bc ca 14 ba bc
       0.008615894 -0.043234576 -0.016065456 -0.022714991
000110 ba 73 be b9 e7 9f be bb 31 5b bb bc d9 56 3d 3c
       -0.00036325847 -0.0058174017 -0.022870632 0.011556351
000120 1d 9e 97 bc 93 6e c8 bb 9e 8a 95 bc d6 92 14 bd
       -0.018508011 -0.006116697 -0.018254574 -0.036272846
000130 c3 f7 98 3c fc 13 86 bd fb 7f c4 bc a5 27 7c bb
       0.01867283 -0.065467805 -0.023986807 -0.0038475778
000140 56 f8 49 bc d9 e1 ab bc 26 3c 38 bd d0 88 7b bd
       -0.012327274 -0.020981716 -0.044979237 -0.06140977
000150 07 a6 5a 3c 4f b5 aa 3b 92 db aa bc 7c 30 97 bc
       0.013345248 0.005209602 -0.020856652 -0.018455736
000160 67 14 d4 3c 47 ac 43 3c f0 c0 67 bd f8 bb 44 b7
       0.025888635 0.01194293 -0.056580484 -1.1726275e-05
000170 1c 89 42 bd 02 e3 c7 bc 27 3f 9b 3c ae 20 e8 3c
       -0.04749404 -0.024400238 0.018951012 0.028335895
000180 a1 c5 5c bc 15 c9 7a bc e8 be 33 bd ca 0e dd 3a
       -0.013474853 -0.015306731 -0.043883234 0.0016865369
000190 13 fc 06 bd aa ca 9c 3c 98 1a 46 bd 8b 9a 89 bc
       -0.03295524 0.019139607 -0.048365206 -0.016797325
0001a0 f0 39 18 3c 96 7f d5 bc 31 16 00 3d 01 45 08 bc
       0.009291157 -0.026061814 0.031271163 -0.008317233
0001b0 83 47 01 bd 91 c6 3d bc 77 e4 1b bd 3b 48 8e 3c
       -0.03156234 -0.011582986 -0.038059678 0.017368427
0001c0 04 43 83 bc 48 01 c4 3c 74 fa 1f 3d b7 44 20 bd
       -0.016023166 0.023926392 0.03905721 -0.03912803
0001d0 f0 4f 10 3a 0e f6 9b bc 29 1d 03 bd 26 97 08 bd
       0.00055050757 -0.019038226 -0.03201023 -0.03334727
0001e0 ab 61 23 bd 4a 31 d7 bc a4 01 0c bd 55 39 d2 bb
       -0.039888065 -0.02626862 -0.034181252 -0.006415526
0001f0 65 2e f1 3b 1e 56 1c bd 71 e8 dc 3a 97 e3 ef bc
       0.007360267 -0.038168065 0.0016853941 -0.029283328

weight f4 [128]
000000 a0 ef 82 3f 88 5c 8f 3f 38 51 8e 3f 0b 1a 89 3f
       1.0229378 1.1200113 1.1118536 1.0711073
000010 8a ce 76 3f af 3f 8d 3f d2 4a 70 3f 92 2f 90 3f
       0.96408904 1.103506 0.93864167 1.1264517
000020 fe 27 80 3f e0 8a 8e 3f e7 42 84 3f 73 d1 73 3f
       1.0012205 1.1136131 1.0332917 0.9524147
000030 15 52 83 3f cc 92 79 3f 11 b6 91 3f 86 58 81 3f
       1.0259424 0.9748962 1.1383687 1.010514
000040 fd e5 86 3f 66 dc 7a 3f d3 d4 7f 3f bc ce 8d 3f
       1.0538937 0.9799255 0.9993412 1.1078715
000050 3e 7f 7c 3f 89 c1 8e 3f 9c 31 7d 3f e0 45 8e 3f
       0.98631656 1.1152812 0.9890382 1.1115074
000060 25 9d 91 3f 89 37 88 3f 66 1a 86 3f 3e ea 94 3f
       1.1376082 1.0641948 1.0476806 1.1633985
000070 ea d0 82 3f e3 91 89 3f 19 f4 89 3f bc dd 76 3f
       1.0220006 1.0747646 1.0777618 0.9643209
000080 89 c0 87 3f ec 6d 75 3f 2a 6a 8e 3f 20 06 99 3f
       1.0605632 0.9587085 1.1126149 1.1954994
000090 b9 73 90 3f 56 8e 7e 3f c4 58 81 3f c5 e0 86 3f
       1.1285316 0.9943594 1.0105214 1.0537344
0000a0 19 99 91 3f 7a af 7c 3f 70 33 92 3f d3 d9 86 3f
       1.1374847 0.98705256 1.1421947 1.0535225
0000b0 7c 9f 98 3f 07 fe 7e 3f c1 1a 89 3f 3d 1f 8e 3f
       1.1923671 0.99606365 1.071129 1.1103283
0000c0 97 33 8d 3f d7 e6 77 3f a4 a1 89 3f dc fc 87 3f
       1.1031369 0.9683661 1.0752454 1.0624042
0000d0 54 88 76 3f ff ae 85 3f c9 56 92 3f 89 f3 89 3f
       0.9630177 1.044403 1.1432735 1.0777446
0000e0 3a 61 84 3f 95 58 87 3f 16 22 7b 3f 58 4e 8e 3f
       1.0342171 1.0573908 0.98098886 1.1117659
0000f0 ce 77 78 3f a7 69 97 3f 23 c7 96 3f bc a2 80 3f
       0.9705781 1.1829118 1.1779522 1.0049663
000100 66 7c 8f 3f 5c 21 8f 3f 8d 58 8c 3f 3a 2c 92 3f
       1.1209838 1.1182055 1.0964524 1.1419747
000110 8f 19 90 3f 64 8f 86 3f 47 83 92 3f a6 b6 93 3f
       1.12578 1.0512509 1.1446313 1.1540115
000120 ad 87 95 3f 7b 1a 96 3f 07 91 8a 3f ad 11 8d 3f
       1.168203 1.1726831 1.0825509 1.1021019
000130 74 74 7b 3f ea f3 75 3f ec 47 8f 3f 40 67 94 3f
       0.9822457 0.9607531 1.1193824 1.1594009
000140 05 c7 88 3f 4c 81 8d 3f 01 72 81 3f 38 d0 85 3f
       1.0685736 1.1055083 1.0112916 1.0454168
000150 6d 7f 8e 3f 6b 9e 80 3f ff 76 82 3f eb 6f 90 3f
       1.1132637 1.0048345 1.0192565 1.1284155
000160 ef a5 80 3f 62 21 8f 3f 60 7a 73 3f 08 f9 92 3f
       1.0050639 1.1182063 0.95108604 1.1482248
000170 67 00 84 3f 85 44 73 3f e7 15 7a 3f bc f2 89 3f
       1.0312623 0.9502643 0.9768967 1.0777202
000180 21 7e 90 3f ec 9f 8d 3f 9b c1 70 3f 03 9d 89 3f
       1.1288491 1.1064429 0.9404542 1.0751041
000190 3f 7c 8b 3f c4 2f 95 3f a5 b2 7a 3f ca bd 8f 3f
       1.0897292 1.1655202 0.9792884 1.1229794
0001a0 54 13 82 3f 51 1f 83 3f 56 8e 8a 3f 3f 18 8f 3f
       1.0162148 1.0243932 1.0824687 1.1179274
0001b0 f6 61 7e 3f a2 68 94 3f d1 fa 7d 3f c5 96 85 3f
       0.99368227 1.1594431 0.9921084 1.0436636
0001c0 72 6d 80 3f 8d 9d 83 3f 46 cf 7d 3f 27 65 90 3f
       1.00334 1.0282456 0.991444 1.1280869
0001d0 fb 24 86 3f 4d 82 90 3f e8 32 8e 3f 0f c6 81 3f
       1.0480036 1.1289765 1.1109285 1.0138568
0001e0 56 83 8c 3f 57 54 7a 3f 51 c0 84 3f 10 e7 87 3f
       1.097758 0.9778494 1.037119 1.061739
0001f0 bc da 91 3f 15 c7 90 3f 52 d5 89 3f 62 0a 8e 3f
       1.1394877 1.1310755 1.0768225 1.1096919

bias f4 [128]
000000 bf 29 3f 3e 51 88 90 3e 75 ff 74 3e 4d e3 5d 3e
       0.18668269 0.28229 0.23925574 0.2166874
000010 1f 51 3b 3e 8e 26 59 3e 2a b3 9b be 19 e4 3d be
       0.18292664 0.21206114 -0.3041013 -0.18544044
000020 3a 91 6b 3e fb 81 44 be ae fa 31 3e 92 b5 77 be
       0.23004618 -0.19190209 0.17380783 -0.24190357
000030 72 c8 7b 3e ce 0f 93 3e dc 75 41 be c1 94 70 3e
       0.24588183 0.28722996 -0.18892616 0.23494245
000040 40 61 6c be 30 8f 92 be 50 62 50 3e 2d c8 54 be
       -0.23083973 -0.28624868 0.20350003 -0.20779486
000050 72 c6 8a 3e a3 c9 79 3e 49 f3 5a be 38 7e 58 be
       0.27104527 0.24393325 -0.21381868 -0.21141899
000060 3b de 54 3e b5 78 49 be 95 c3 7c 3e 06 86 3d be
       0.20787899 -0.19674952 0.24683984 -0.18508157
000070 85 f1 32 be 4c 88 93 be c2 51 5c be f7 45 79 3e
       -0.17474945 -0.28814924 -0.21515563 0.24343096
000080 0e 4c 6a 3e 60 70 83 3e 11 be 39 be 06 b2 7b 3e
       0.22880575 0.25671673 -0.18138911 0.2457963
000090 da ae 7a be 67 6e 42 3e 98 1f 47 3e a5 ec 35 3e
       -0.24480763 0.18987428 0.19445646 0.17766054
0000a0 2b da 82 3e a3 f0 98 3e 11 52 50 be 39 1f 48 3e
       0.25557074 0.2987109 -0.20343806 0.1954316
0000b0 e3 5c 74 be ac e0 87 3e 9d 01 76 be 12 8a 4e be
       -0.23863558 0.265386 -0.24024053 -0.20169857
0000c0 b9 68 86 be bd df 7f 3e 6b e8 77 3e 60 ad 50 be
       -0.26251772 0.24987693 0.24209754 -0.20378637
0000d0 ae 38 46 3e c1 4f 40 3e d9 ab 56 3e a9 d6 5d be
       0.19357559 0.18780424 0.20963992 -0.21663918
0000e0 5f ac 58 3e 62 65 37 3e fb 75 3d 3e 43 47 40 be
       0.21159504 0.17909768 0.18502037 -0.18777184
0000f0 c2 40 9e be 78 1d 9c bd d6 20 54 be 92 eb 42 3e
       -0.3090878 -0.07622808 -0.20715651 0.19035175
000100 e3 e2 50 be eb 93 31 be 2f f8 53 3e 9a 3b 42 be
       -0.2039905 -0.17341582 0.20700143 -0.18968049
000110 5c 63 5e be c7 d5 2c 3e 86 63 48 be d4 54 5b be
       -0.2171759 0.16878425 -0.19569215 -0.21419078
000120 21 3e 6a 3e c7 dc 0a 3e 25 19 7b 3e ae f8 59 3e
       0.22875263 0.13560782 0.2452131 0.2128627
000130 7d a9 40 be 14 39 77 3e 02 1a 55 be 5b 38 4b be
       -0.18814655 0.24142867 -0.20810702 -0.19845717
000140 27 f1 73 3e e1 1e 6b 3e e5 ca 55 be ee 71 8f be
       0.23822461 0.22960998 -0.2087818 -0.2801661
000150 eb b9 4c 3e af af 49 3e c7 4d 84 be 0e f9 41 be
       0.19992797 0.19695924 -0.2584059 -0.18942663
000160 c4 31 2d 3e 43 83 37 3e f8 72 91 be 5c 68 4a 3e
       0.16913515 0.17921166 -0.28408027 0.19766372
000170 13 0c 81 3e a2 2d 77 be 7f 2c 40 3e bd f9 73 3e
       0.25204524 -0.24138501 0.18766974 0.23825736
000180 b5 84 71 3e f6 7d 37 be d8 4a 86 be 71 6c 83 bd
       0.2358578 -0.17919144 -0.26228976 -0.06417168
000190 c8 a2 3f be 5a 6a 12 3e de e3 9a 3e 3d fe 47 be
       -0.1871444 0.14298382 0.30251974 -0.19530578
0001a0 56 73 3b 3e 8d ac 3b 3e eb c6 54 3e f0 46 46 bd
       0.18305716 0.18327542 0.20779006 -0.048407495
0001b0 11 e9 57 3e a3 69 33 be 81 fa 85 3e 8d 9a 45 be
       0.21085002 -0.17520766 0.26167682 -0.19297238
0001c0 2f 68 79 be 57 bb 76 be 82 25 48 3e fe 1d 7f 3e
       -0.24356149 -0.24094902 0.19545558 0.24913785
0001d0 ec a3 41 3e 88 d5 3c be 86 f2 80 be 9f 87 59 3e
       0.18910187 -0.1844083 -0.2518503 0.21243142
0001e0 9c 3c 48 3e ab c1 53 3e f6 4a 83 3e 1e 59 56 3e
       0.1955437 0.20679347 0.25643128 0.20932433
0001f0 dd 6d 8e bd fa 29 78 3e ae db 45 be 26 a6 40 be
       -0.069545485 0.24234763 -0.19322082 -0.1881338

running_mean f4 [128]
000000 bc d1 9b 3c 7a 34 26 3c 77 40 5b 3b c4 e6 65 3c
       0.019020908 0.010144347 0.0033455172 0.01403207
000010 a5 13 8e 3c 04 50 32 3b 6d b9 2c 3b bf 5b 07 3c
       0.017343352 0.0027208338 0.002635564 0.00826162
000020 b3 a8 49 39 7e e4 8c 3b 3f ce 5f 3c 0b 54 92 ba
       0.00019231699 0.0042996993 0.013660013 -0.0011163963
000030 b9 58 c2 3c ee 62 00 ba fc a8 28 3b 0d b1 47 3d
       0.023723947 -0.0004897554 0.0025735488 0.048752833
000040 e0 c0 16 39 b0 42 98 ba 6c 3c 01 3c 8a 2a 00 3c
       0.00014376966 -0.0011616554 0.007887941 0.007822642
000050 e1 6b 3c ba 59 0b 8a 3c 38 37 fc 3a 40 73 93 3b
       -0.0007187706 0.016851114 0.0019242531 0.004499823
000060 c2 2f 99 3c df c6 48 3b 18 41 51 3d 7a 0e 0e 3c
       0.01869953 0.0030636115 0.05108747 0.008670444
000070 ac 0e 8a 39 0b 64 5b 3c c5 5e 06 3c ec 54 04 39
       0.00026332343 0.013390551 0.008201306 0.00012620137
000080 bc 06 d3 3c a3 88 24 ba 23 6a 96 3b af 92 24 3c
       0.025760047 -0.0006276464 0.004590289 0.010044738
000090 04 c8 cf 3b e3 1c b3 3c 88 a5 49 3d c6 5c 91 3c
       0.0063409824 0.02186436 0.04923013 0.017744433
0000a0 32 d2 81 3b 18 40 6f ba 0f a1 a1 3b 2c cc ce 3c
       0.003961825 -0.0009126677 0.0049325298 0.025243841
0000b0 ca 5d e6 3b 5f 59 97 ba 8b d9 c3 b9 4a 38 e6 3b
       0.0070302235 -0.001154702 -0.0003735538 0.007025753
0000c0 90 83 25 3b 2b 37 70 b9 d6 55 2e 3d 59 8e 06 3c
       0.002525542 -0.00022908735 0.04256233 0.008212649
0000d0 8f 13 3c 3d 0c 46 d6 3c ca a9 ee 3b 92 0b d9 3c
       0.04591709 0.026156448 0.007283424 0.026494775
0000e0 2a 6c dd 3c c9 ff b7 3b 95 58 13 3b 82 aa e4 3b
       0.027029116 0.0056152088 0.002248322 0.006978334
0000f0 6a a6 93 ba 64 f2 07 3c 9e 66 80 3b a0 25 f5 39
       -0.0011264805 0.0082975365 0.003918483 0.00046758074
000100 b0 ef 7b 3b c3 42 15 3b 58 51 8c 3b 3e 66 be 3b
       0.0038442425 0.0022775389 0.004282158 0.005810528
000110 61 02 4b 3b 6c b9 87 3c d9 0b e7 3b 99 f9 92 3b
       0.003097676 0.016567908 0.007050973 0.0044853208
000120 18 87 fe 3b 1c 44 22 3c b6 d7 02 3c b2 6f 6e 3a
       0.0077675693 0.009903934 0.007986 0.00090956234
000130 1b f7 bd 3c 50 58 81 ba 9e 7a 54 3b 5e a8 d7 3a
       0.023189118 -0.0009868238 0.0032421718 0.0016453376
000140 52 ae 6a 3c 0a 51 c3 3c cb e0 21 ba 92 b8 c3 ba
       0.014323788 0.023842353 -0.00061751594 -0.0014932326
000150 e9 10 9e 3b 95 21 e3 3b 3a c3 8c ba aa 9d 64 3a
       0.004823793 0.0069314935 -0.0010739334 0.00087210035
000160 9b e3 13 3d 75 05 37 3c 80 c5 8c ba 24 e6 1a 3c
       0.036105733 0.011170735 -0.0010740012 0.009454284
000170 43 9c 9a 3b 1a 5e 96 3a 1c 83 eb 3c 35 9c 39 3d
       0.004718335 0.0011472136 0.028749041 0.045314986
000180 3f 76 d3 3b c8 35 13 3b 5b cd 3f ba 79 35 96 3c
       0.006453305 0.0022462476 -0.0007316672 0.018336045
000190 3c 14 1b 3c a1 f0 1d 3b c1 26 c5 3a cf f6 80 3b
       0.0094652735 0.0024099725 0.0015041457 0.003935672
0001a0 a6 dc 6f 3c 34 71 3b 3b 63 dd fb 3c d7 4c 22 3c
       0.014640009 0.002860141 0.030745214 0.009906015
0001b0 20 51 00 3c c1 bd 9a 3b 08 09 17 ba e9 cd 9d 3b
       0.007831842 0.0047223275 -0.00057615386 0.004815806
0001c0 45 ef f0 b9 de 40 50 3d 71 62 41 3d 73 e8 0b 3b
       -0.00045954637 0.050843112 0.04721302 0.0021348267
0001d0 48 a2 fd 3b f4 53 77 3b f5 66 74 3a 45 09 af b9
       0.0077402927 0.003773925 0.0009323203 -0.00033385507
0001e0 e8 9f cd 3b 7b 29 20 3c b5 6e e2 3b db 4b a2 3c
       0.006275166 0.009775515 0.00691017 0.019811561
0001f0 ce 68 21 3b 67 2a 8c 3b 78 9f 78 3b 46 08 e1 3a
       0.002462912 0.0042775157 0.0037936848 0.0017168603

running_var f4 [128]
000000 ba 65 4e 3a ab 5b 57 3a 7f 80 71 39 fa e3 09 3a
       0.0007873435 0.0008215259 0.0002303142 0.00052601064
000010 89 96 4b 3a 4e 9e 4a 39 d2 1e 0a 39 52 38 f2 39
       0.0007766267 0.00019323194 0.00013172187 0.000461998
000020 2d 9b 71 38 3a 0f c7 39 0e 0d 01 3a 94 62 08 35
       5.7603396e-05 0.00037967582 0.0004922905 5.08074e-07
000030 4f 80 ad 3a 05 47 0c 35 ae 20 39 39 ce c8 2c 3b
       0.0013237091 5.225741e-07 0.00017655149 0.0026364806
000040 c8 3b 98 38 0c f7 1b 35 77 c2 d6 39 2c c7 17 3a
       7.25906e-05 5.81015e-07 0.00040962148 0.0005789872
000050 ea 73 a2 34 f2 8c 6a 3a a3 4b 4e 39 e6 95 6e 39
       3.025919e-07 0.0008947394 0.00019673868 0.0002275329
000060 b0 3c 4a 3a 71 75 81 39 09 2f 2e 3b 77 26 f6 39
       0.00077147316 0.00024692298 0.0026578328 0.00046949435
000070 37 4e 4f 38 e5 19 3e 3a 82 36 1c 3a 4e 89 6b 38
       4.942549e-05 0.00072517834 0.000595905 5.615624e-05
000080 24 21 87 3a 02 3e a4 37 02 aa c0 39 e6 6c 5a 3a
       0.0010309559 1.9579198e-05 0.0003674776 0.0008332267
000090 9a 51 96 39 47 dc 69 3a 54 00 14 3b 9a 3d 34 3a
       0.00028671027 0.00089210685 0.0022583203 0.00068756344
0000a0 24 a6 89 39 49 06 fd 34 4d 2b e0 39 cd 1c ad 3a
       0.0002625446 4.7129495e-07 0.0004275687 0.0013207436
0000b0 08 b7 14 3a 9c a8 39 35 d5 e1 f6 37 32 23 0b 3a
       0.0005673026 6.916323e-07 2.9430646e-05 0.0005307674
0000c0 9a 31 b4 39 e0 0c ae 37 9c 4f f6 3a 07 3d e9 39
       0.0003436923 2.0748412e-05 0.0018792036 0.00044486692
0000d0 43 21 18 3b 8f 5f c3 3a 8a 15 18 3a 5f 84 89 3a
       0.0023213185 0.0014905798 0.00058015494 0.001049172
0000e0 70 93 b7 3a 0e 18 85 39 51 64 06 39 67 d0 bc 39
       0.0014005732 0.0002538566 0.00012816607 0.00036013426
0000f0 c6 52 08 35 f2 f0 00 3a c0 7f 83 39 b6 10 1a 38
       5.07844e-07 0.0004918716 0.00025081448 3.6732024e-05
000100 f8 03 7c 39 60 80 4e 39 eb 2b 94 39 10 8d a9 39
       0.00024034071 0.00019693514 0.0002826148 0.00032339292
000110 dd 3f 73 39 02 5a 36 3a d5 93 14 3a 01 aa 8d 39
       0.00023198077 0.0006956161 0.00056677806 0.00027020279
000120 91 45 1f 3a dd 7e 66 3a b4 98 17 3a e9 aa ce 38
       0.0006075735 0.0008792708 0.00057829474 9.85468e-05
000130 5b b8 93 3a f4 a0 07 35 fb a1 80 39 ce 8c d2 38
       0.0011270152 5.0525637e-07 0.00024534747 0.00010039807
000140 ca 9a 22 3a a2 25 a2 3a 23 29 dc 36 b6 02 9a 35
       0.0006202875 0.0012370835 6.5613e-06 1.1474683e-06
000150 18 a8 ba 39 6d 74 be 39 d5 22 09 37 e9 02 84 38
       0.00035601924 0.00036326368 8.173946e-06 6.2947925e-05
000160 2c 60 e9 3a f3 b8 cf 39 e8 6e 1a 35 42 30 51 3a
       0.0017805151 0.00039619915 5.753086e-07 0.0007979908
000170 e9 57 14 3a 6c 8d 1c 39 aa cb c6 3a 61 9c 02 3b
       0.00056588516 0.00014930003 0.0015166898 0.0019929635
000180 ba 06 e4 39 dc f8 12 39 3a c8 98 34 0d a4 3c 3a
       0.0004349256 0.00014016352 2.845789e-07 0.00071960763
000190 52 3d 58 3a 33 f7 63 39 50 e3 2f 39 be 38 90 39
       0.00082488835 0.00021740496 0.00016773981 0.00027508097
0001a0 19 9e 22 3a 9a 33 50 39 d2 e9 d2 3a e3 41 1c 3a
       0.0006203368 0.00019855649 0.0016091412 0.00059607456
0001b0 69 ae a0 39 d8 ec 94 39 24 02 f7 36 60 47 a1 39
       0.00030647524 0.00028405222 7.361423e-06 0.00030761492
0001c0 1b 5b b8 36 17 41 14 3b 8e 6a 05 3b ef c2 fa 38
       5.4942334e-06 0.0022621804 0.00203577 0.00011957238
0001d0 ff 4b b8 39 6d b2 64 39 bd c4 be 38 b6 3b c9 37
       0.00035151836 0.00021810243 9.0965514e-05 2.3988872e-05
0001e0 b6 be 89 39 2d 3b 18 3a 96 27 ff 39 44 cd 6c 3a
       0.00026272767 0.0005807158 0.00048666884 0.00090332725
0001f0 a0 d2 2a 39 51 50 aa 39 98 4e 7b 39 ff 99 07 39
       0.00016290927 0.00032484767 0.00023966504 0.00012931971

weight f4 [4, 128]
000000 e3 2d d9 3d c0 f1 24 3e fc 32 5b 3e 4c 01 fc 3d
       0.10604455 0.16107845 0.21406168 0.12304935
000010 1a c4 0a 3e 4f d2 ba 3d 07 90 85 be 76 a9 8f bd
       0.1355137 0.091221444 -0.26086447 -0.07014744
000020 e4 0f 4c 3e 5f c2 a7 bd 73 b2 0e 3e c9 ba 14 be
       0.19927937 -0.0819137 0.1393526 -0.14524378
000030 72 9b 76 3b 31 41 86 3e d3 f1 b7 bc 49 e0 f6 3c
       0.0037629274 0.26221612 -0.022454178 0.030136244
000040 43 04 9e bc a4 d9 69 be 79 48 36 3e 11 c1 1f be
       -0.019289142 -0.2283693 0.17801084 -0.15600993
000050 50 b8 e5 3d 13 3a b5 3d 37 d4 59 be 46 72 3b be
       0.112167954 0.088489674 -0.2127236 -0.1830531
000060 1d 58 19 3e 1b 02 1c bd c0 5c fd 3d 81 1a 23 be
       0.14975019 -0.038087945 0.12371206 -0.15928079
000070 de 36 20 be 8f ff 61 be 14 1a f4 3c b1 b5 85 3e
       -0.1564593 -0.22070144 0.029797591 0.26115182
000080 e5 57 39 3e 5f 73 3d 3e 82 c5 96 bc 15 a1 a2 bd
       0.18099935 0.18501042 -0.018404726 -0.0794088
000090 cf 56 05 bd 3f 79 b6 3d 8a 79 53 3c 4d cd 25 3e
       -0.03255349 0.089098446 0.012907395 0.16191597
0000a0 fe 30 20 bd 9b e9 47 3e d9 d3 05 bd 25 7c 16 3e
       -0.039109223 0.19522707 -0.032672737 0.14695795
0000b0 06 b4 4d be 4c 34 19 3e e7 53 06 3d 8e ef 44 be
       -0.20088205 0.14961356 0.03279486 -0.19232008
0000c0 a0 12 d5 bc 20 ee 59 3e b6 af 0d bd 2c 5a 6e bc
       -0.026009858 0.21282244 -0.0345914 -0.014547866
0000d0 7f f1 18 3e b7 61 a3 bd 78 0a 06 be 08 d7 de 3c
       0.14935873 -0.07977622 -0.13089931 0.027202144
0000e0 57 8d 37 3e 42 c4 16 3e d0 47 16 3e 98 c1 e6 bd
       0.1792501 0.14723304 0.14675832 -0.11267394
0000f0 c1 23 59 be b7 d2 0b bd f1 cb 5e be 21 0d 2e 3e
       -0.21205045 -0.0341365 -0.21757485 0.16997196
000100 03 e6 fe bd 74 a3 75 3c 0f 84 c7 bd a0 62 44 be
       -0.12446215 0.014992584 -0.09741985 -0.19178247
000110 0d b4 3c bd 5e a5 39 3e 85 10 a2 39 c6 f6 4c be
       -0.046070147 0.18129489 0.00030911356 -0.20016012
000120 fa d3 f7 bd d4 7e 44 be 3b da 24 3e 35 b0 55 3e
       -0.12100978 -0.19189006 0.16098873 0.20867999
000130 cf 73 92 bd e7 a4 56 3e a8 48 c8 bc 6e 1d 0a bc
       -0.07150995 0.20961343 -0.024448708 -0.008429868
000140 48 7f 0a 3e f3 4e af 3d e4 c8 0c be 78 0d 68 be
       0.13525116 0.0855998 -0.13748509 -0.22661388
000150 79 68 15 3e ee e4 44 3e a5 66 45 be 32 68 c3 3c
       0.14590634 0.19227955 -0.19277437 0.023853395
000160 ef 4b 75 3d f7 71 d9 3d 75 c0 91 be 2f 23 8c bd
       0.05988687 0.1061744 -0.28467146 -0.06842648
000170 4e a2 46 bd 41 b7 fd bd ae 09 3f 3e 4f f8 ff 3d
       -0.04849463 -0.123884685 0.18656036 0.12498533
000180 22 d1 00 3e 36 65 31 3d 0d 73 84 be f1 a0 be 3d
       0.12579778 0.043309413 -0.25869027 0.09308041
000190 e8 30 3a be 25 2f 00 3e 59 57 36 3e 1e d0 97 3d
       -0.18182719 0.12517984 0.17806758 0.07412742
0001a0 99 56 2c 3e 3e 95 3f 3e 9e 86 68 3d 5c b9 0e 3e
       0.1682991 0.18709275 0.056769006 0.13937896
0001b0 88 8f b3 3d aa 4a 50 be 84 a6 32 3e 9b bb 81 bc
       0.08767611 -0.20340982 0.17446333 -0.015836528
0001c0 08 91 08 bd a9 f8 1e 3c 01 e2 1c 3e 44 24 de 3d
       -0.033341438 0.00970284 0.15320589 0.10846761
0001d0 70 ba 39 3e d7 64 b1 3d 93 1b 88 3b 1a 5c 5e 3e
       0.18137527 0.08661812 0.0041536777 0.21714821
0001e0 cf e8 eb 3d 41 7c d3 3d ba bc 2d 3e c2 df 86 3d
       0.11519014 0.10326434 0.16966525 0.06585647
0001f0 4b 43 84 3d 9c 4a 00 3e 21 83 25 be 2c ca 68 be
       0.064581476 0.12528461 -0.16163303 -0.22733372
000200 40 4c 20 3e 22 9d 27 bd 6c 14 0f 39 73 e5 ba 3d
       0.15654087 -0.040921338 0.0001364515 0.09125795
000210 57 26 7e 3d 05 11 6a 3d 6d 1e 04 be 35 57 54 be
       0.062048282 0.057145137 -0.12902232 -0.20736392
000220 3d 4d 91 3d ab df 86 bd 32 8b 3f 3e 38 42 92 bd
       0.0709481 -0.0658563 0.18705443 -0.071415365
000230 76 b7 25 3c b6 99 0e 3d 12 b8 39 be 5f 85 0d 3e
       0.010114541 0.03481456 -0.18136624 0.13820408
000240 1d ef b4 bd 7c 22 3e be 27 c3 6d 3d a5 cf ff bd
       -0.0883467 -0.18567842 0.05804744 -0.12490777
000250 2f 9d ab bb a2 5f 55 3e 9f bf 11 be ca 43 2e ba
       -0.0052372436 0.20837262 -0.14233254 -0.00066476746
000260 03 b2 55 3e 1a 39 89 bd 85 6e 13 3e ea cb 35 be
       0.20868687 -0.067003444 0.14397629 -0.17753568
000270 59 cd f4 bd b9 cc 0d 3d 17 07 96 3c 74 de b0 bb
       -0.119532295 0.034619067 0.018313928 -0.005397612
000280 bb 18 03 3e 8f e3 53 bd 0c bc 9c bd 88 04 2f be
       0.12802403 -0.05173069 -0.076530546 -0.17091572
000290 0a 7c 27 3e b9 f4 05 3e d2 ab 1b 3e 48 19 4e 3e
       0.16355911 0.13081636 0.15202263 0.20126832
0002a0 66 61 1e be c6 d7 17 3e e9 7e 49 be d8 d0 3e 3e
       -0.15466842 0.14828405 -0.19677319 0.18634355
0002b0 44 fe ed bd 30 b5 40 3e 3f c1 91 3c 87 0c 6d be
       -0.11620763 0.18819118 0.017792342 -0.2314931
0002c0 f1 fa 33 bd 80 ba bf 3d 39 c0 14 3e 8f f1 98 3c
       -0.04394049 0.09361744 0.14526452 0.018669872
0002d0 70 bb 91 3d e7 63 19 3d ea 18 c9 3b 51 39 01 3e
       0.07115829 0.03744879 0.006137003 0.1261952
0002e0 76 6f 6f 3d 1f d0 24 3e 81 9d 7b 3d 8d 0d 4d be
       0.058455907 0.16095017 0.061429504 -0.200247
0002f0 ee 19 95 bd d6 e8 4b be 4e ba f7 bd d8 c7 bc 3d
       -0.07280336 -0.19913039 -0.12096082 0.09217805
000300 49 15 0d be 20 5f 34 be d9 9d 12 3d 00 23 38 be
       -0.13777651 -0.17614412 0.035795067 -0.17982101
000310 c0 46 0f bd 95 b8 16 3e e9 1d 19 be 48 c4 28 be
       -0.03497958 0.1471885 -0.14952816 -0.16481125
000320 02 7a 29 be 4b 62 be bd 21 ca 4e 3d 76 70 0c 3e
       -0.16550449 -0.09296092 0.050485734 0.13714775
000330 af 0d 73 3d 59 cf 17 3e 29 33 22 bd e3 50 51 be
       0.05933922 0.1482519 -0.03959957 -0.20441012
000340 ca 69 1f 3e cc 05 54 3e 66 99 b9 bd 34 14 81 3d
       0.15567699 0.20705336 -0.090624616 0.063026816
000350 fa df 00 be c3 f2 1b 3d 61 ca b2 bd dd 67 17 be
       -0.1258544 0.038073312 -0.08730007 -0.14785714
000360 4a 8c 1a 3e 46 da 49 3e 7c 67 41 bd 52 d4 18 be
       0.15092579 0.19712171 -0.04721783 -0.14924744
000370 61 60 71 3b 46 70 1e be 31 77 40 3d 75 16 08 3e
       0.0036831128 -0.15472516 0.04698867 0.13289817
000380 f6 ce 08 be 8f d5 2a be ff da c6 bc cc 1f 0e 3e
       -0.133602 -0.16683029 -0.024274347 0.13879317
000390 d6 d7 03 be 19 92 32 3c f1 70 5a 3d 30 08 2d be
       -0.12875304 0.01089909 0.053330366 -0.16897655
0003a0 d7 12 1b 3e 1b 87 1d 3e a6 ff 50 3e ee 35 58 bd
       0.15143906 0.1538357 0.20410022 -0.052785806
0003b0 26 b4 c7 3d b4 3c 5a be 1a 8d 95 bd bd fe 63 bd
       0.097511575 -0.21312219 -0.073023036 -0.05566286
0003c0 38 f9 2c 3d 3e 5d 9a 3d 34 73 d7 3d 97 a2 9d bd
       0.04222986 0.07537316 0.1052002 -0.07697027
0003d0 b3 b6 05 3e 7f fe 33 be 21 3d 5b 3c 78 71 1a 3e
       0.13057975 -0.17577551 0.0133812735 0.15082347
0003e0 fb 84 e4 3d 84 6c 42 3d c3 6a 2a 3e 0e e5 3e 3e
       0.111581765 0.04746677 0.16642289 0.18642065
0003f0 e9 35 26 be 2d 07 f7 bd b5 0f 20 be 8a 40 ae bd
       -0.16231503 -0.120619155 -0.15630992 -0.085084036

bias f4 [4]
000000 98 5a 39 3e 49 df fc 3d c2 cd 45 3e 08 71 3b 3e
       0.18100965 0.12347276 0.19316772 0.18304837
